…
            (o_proj): Linear4bit(in_features=4096, out_features=4096, bias=False)
            (rotary_emb): LlamaRotaryEmbedding()
          )
          (mlp): LlamaMLP(
            (gate_proj): Linear4bit(in_features=4096, out_features=14336, bias=False)
            (up_proj): Linear4bit(in_features=4096, out_features=14336, bias=False)
            (down_proj): Linear4bit(in_features=14336, out_features=4096, bias=False)
            (act_fn): SiLU()
          )
          (input_layernorm): LlamaRMSNorm()
          (post_attention_layernorm): LlamaRMSNorm()
        )
      )
      (norm): LlamaRMSNorm()
    )
    (lm_head): Linear(in_features=4096, out_features=128259, bias=False)
  )
  (vision_tower): SiglipVisionTower(
    (vision_tower): SiglipVisionModel(
      (vision_model): SiglipVisionTransformer(
        (embeddings): SiglipVisionEmbeddings(
          (patch_embedding): Conv2d(3, 1152, kernel_size=(14, 14), stride=(14, 14), padding=valid)
          (position_embedding): Embedding(729, 1152)
        )
        (encoder): SiglipEncoder(
          (layers): ModuleList(
            (0-26): 27 x SiglipEncoderLayer(
              (self_attn): SiglipAttention(
                (k_proj): Linear(in_features=1152, out_features=1152, bias=True)
                (v_proj): Linear(in_features=1152, out_features=1152, bias=True)
                (q_proj): Linear(in_features=1152, out_features=1152, bias=True)
                (out_proj): Linear(in_features=1152, out_features=1152, bias=True)
              )
              (layer_norm1): LayerNorm((1152,), eps=1e-06, elementwise_affine=True)
              (mlp): SiglipMLP(
                (activation_fn): PytorchGELUTanh()
                (fc1): Linear(in_features=1152, out_features=4304, bias=True)
                (fc2): Linear(in_features=4304, out_features=1152, bias=True)
              )
              (layer_norm2): LayerNorm((1152,), eps=1e-06, elementwise_affine=True)
            )
          )
        )
        (post_layernorm): LayerNorm((1152,), eps=1e-06, elementwise_affine=True)
        (head): SiglipMultiheadAttentionPoolingHead(
          (attention): MultiheadAttention(
            (out_proj): NonDynamicallyQuantizableLinear(in_features=1152, out_features=1152, bias=True)
          )
          (layernorm): LayerNorm((1152,), eps=1e-06, elementwise_affine=True)
          (mlp): SiglipMLP(
            (activation_fn): PytorchGELUTanh()
            (fc1): Linear(in_features=1152, out_features=4304, bias=True)
            (fc2): Linear(in_features=4304, out_features=1152, bias=True)
          )
        )
      )
    )
  )
  (mm_projector): MultimodalProjector(
    (layers): Sequential(
      (0): DownSampleBlock()
      (1): LayerNorm((4608,), eps=1e-05, elementwise_affine=True)
      (2): Linear(in_features=4608, out_features=4096, bias=True)
      (3): GELU(approximate='none')
      (4): Linear(in_features=4096, out_features=4096, bias=True)
    )
  )
  (region_extractor): RegionExtractor(
    (mask_pooling): MaskPooling()
    (feature_refinement_module): Sequential(
      (0): ConvTranspose2d(1152, 1152, kernel_size=(2, 2), stride=(2, 2))
      (1): LayerNorm2d()
      (2): GELU(approximate='none')
      (3): ConvTranspose2d(1152, 1152, kernel_size=(2, 2), stride=(2, 2))
      (4): GELU(approximate='none')
    )
    (ada_pooling): AdaptiveAvgPool2d(output_size=27)
    (rgb_projector): Linear(in_features=1152, out_features=4096, bias=True)
    (depth_projector): Linear(in_features=1152, out_features=4096, bias=True)
  )
)
WARNING:root:You are setting tunable parameters for the model. Previous args include 'freeze_backbone' and 'tune_mm_mlp_adapter' are deprecated.
 Notice: default value of tune_xxx is False, which means you would not tune this part.
---> Lora enable, prepare config ...
Adding LoRA adapters...
PeftModelForCausalLM(
  (base_model): LoraModel(
    (model): LlavaLlamaModel(
      (llm): LlamaForCausalLM(
        (model): LlamaModel(
          (embed_tokens): Embedding(128259, 4096)
          (layers): ModuleList(
            (0-31): 32 x LlamaDecoderLayer(
              (self_attn): LlamaFlashAttention2(
                (q_proj): lora.Linear(
                  (base_layer): Linear4bit(in_features=4096, out_features=4096, bias=False)
                  (lora_dropout): ModuleDict(
                    (default): Dropout(p=0.05, inplace=False)
                  )
                  (lora_A): ModuleDict(
                    (default): Linear(in_features=4096, out_features=32, bias=False)
                  )
                  (lora_B): ModuleDict(
                    (default): Linear(in_features=32, out_features=4096, bias=False)
                  )
                  (lora_embedding_A): ParameterDict()
                  (lora_embedding_B): ParameterDict()
                )
                (k_proj): lora.Linear(
                  (base_layer): Linear4bit(in_features=4096, out_features=1024, bias=False)
                  (lora_dropout): ModuleDict(
                    (default): Dropout(p=0.05, inplace=False)
                  )
                  (lora_A): ModuleDict(
                    (default): Linear(in_features=4096, out_features=32, bias=False)
                  )
                  (lora_B): ModuleDict(
                    (default): Linear(in_features=32, out_features=1024, bias=False)
                  )
                  (lora_embedding_A): ParameterDict()
                  (lora_embedding_B): ParameterDict()
                )
                (v_proj): lora.Linear(
                  (base_layer): Linear4bit(in_features=4096, out_features=1024, bias=False)
                  (lora_dropout): ModuleDict(
                    (default): Dropout(p=0.05, inplace=False)
                  )
                  (lora_A): ModuleDict(
                    (default): Linear(in_features=4096, out_features=32, bias=False)
                  )
                  (lora_B): ModuleDict(
                    (default): Linear(in_features=32, out_features=1024, bias=False)
                  )
                  (lora_embedding_A): ParameterDict()
                  (lora_embedding_B): ParameterDict()
                )
                (o_proj): lora.Linear(
                  (base_layer): Linear4bit(in_features=4096, out_features=4096, bias=False)
                  (lora_dropout): ModuleDict(
                    (default): Dropout(p=0.05, inplace=False)
                  )
                  (lora_A): ModuleDict(
                    (default): Linear(in_features=4096, out_features=32, bias=False)
                  )
                  (lora_B): ModuleDict(
                    (default): Linear(in_features=32, out_features=4096, bias=False)
                  )
                  (lora_embedding_A): ParameterDict()
                  (lora_embedding_B): ParameterDict()
                )
                (rotary_emb): LlamaRotaryEmbedding()
              )
              (mlp): LlamaMLP(
                (gate_proj): lora.Linear(
                  (base_layer): Linear4bit(in_features=4096, out_features=14336, bias=False)
                  (lora_dropout): ModuleDict(
                    (default): Dropout(p=0.05, inplace=False)
                  )
                  (lora_A): ModuleDict(
                    (default): Linear(in_features=4096, out_features=32, bias=False)
                  )
                  (lora_B): ModuleDict(
                    (default): Linear(in_features=32, out_features=14336, bias=False)
                  )
                  (lora_embedding_A): ParameterDict()
                  (lora_embedding_B): ParameterDict()
                )
                (up_proj): lora.Linear(
                  (base_layer): Linear4bit(in_features=4096, out_features=14336, bias=False)
                  (lora_dropout): ModuleDict(
                    (default): Dropout(p=0.05, inplace=False)
                  )
                  (lora_A): ModuleDict(
                    (default): Linear(in_features=4096, out_features=32, bias=False)
                  )
                  (lora_B): ModuleDict(
                    (default): Linear(in_features=32, out_features=14336, bias=False)
                  )
                  (lora_embedding_A): ParameterDict()
                  (lora_embedding_B): ParameterDict()
                )
                (down_proj): lora.Linear(
                  (base_layer): Linear4bit(in_features=14336, out_features=4096, bias=False)
                  (lora_dropout): ModuleDict(
                    (default): Dropout(p=0.05, inplace=False)
                  )
                  (lora_A): ModuleDict(
                    (default): Linear(in_features=14336, out_features=32, bias=False)
                  )
                  (lora_B): ModuleDict(
                    (default): Linear(in_features=32, out_features=4096, bias=False)
                  )
                  (lora_embedding_A): ParameterDict()
                  (lora_embedding_B): ParameterDict()
                )
                (act_fn): SiLU()
              )
              (input_layernorm): LlamaRMSNorm()
              (post_attention_layernorm): LlamaRMSNorm()
            )
          )
          (norm): LlamaRMSNorm()
        )
        (lm_head): Linear(in_features=4096, out_features=128259, bias=False)
      )
      (vision_tower): SiglipVisionTower(
        (vision_tower): SiglipVisionModel(
          (vision_model): SiglipVisionTransformer(
            (embeddings): SiglipVisionEmbeddings(
              (patch_embedding): Conv2d(3, 1152, kernel_size=(14, 14), stride=(14, 14), padding=valid)
              (position_embedding): Embedding(729, 1152)
            )
            (encoder): SiglipEncoder(
              (layers): ModuleList(
                (0-26): 27 x SiglipEncoderLayer(
                  (self_attn): SiglipAttention(
                    (k_proj): Linear(in_features=1152, out_features=1152, bias=True)
                    (v_proj): Linear(in_features=1152, out_features=1152, bias=True)
                    (q_proj): Linear(in_features=1152, out_features=1152, bias=True)
                    (out_proj): Linear(in_features=1152, out_features=1152, bias=True)
                  )
                  (layer_norm1): LayerNorm((1152,), eps=1e-06, elementwise_affine=True)
                  (mlp): SiglipMLP(
                    (activation_fn): PytorchGELUTanh()
                    (fc1): Linear(in_features=1152, out_features=4304, bias=True)
                    (fc2): Linear(in_features=4304, out_features=1152, bias=True)
                  )
                  (layer_norm2): LayerNorm((1152,), eps=1e-06, elementwise_affine=True)
                )
              )
            )
            (post_layernorm): LayerNorm((1152,), eps=1e-06, elementwise_affine=True)
            (head): SiglipMultiheadAttentionPoolingHead(
              (attention): MultiheadAttention(
                (out_proj): NonDynamicallyQuantizableLinear(in_features=1152, out_features=1152, bias=True)
              )
              (layernorm): LayerNorm((1152,), eps=1e-06, elementwise_affine=True)
              (mlp): SiglipMLP(
                (activation_fn): PytorchGELUTanh()
                (fc1): Linear(in_features=1152, out_features=4304, bias=True)
                (fc2): Linear(in_features=4304, out_features=1152, bias=True)
              )
            )
          )
        )
      )
      (mm_projector): MultimodalProjector(
        (layers): Sequential(
          (0): DownSampleBlock()
          (1): LayerNorm((4608,), eps=1e-05, elementwise_affine=True)
          (2): Linear(in_features=4608, out_features=4096, bias=True)
          (3): GELU(approximate='none')
          (4): Linear(in_features=4096, out_features=4096, bias=True)
        )
      )
      (region_extractor): RegionExtractor(
        (mask_pooling): MaskPooling()
        (feature_refinement_module): Sequential(
          (0): ConvTranspose2d(1152, 1152, kernel_size=(2, 2), stride=(2, 2))
          (1): LayerNorm2d()
          (2): GELU(approximate='none')
          (3): ConvTranspose2d(1152, 1152, kernel_size=(2, 2), stride=(2, 2))
          (4): GELU(approximate='none')
        )
        (ada_pooling): AdaptiveAvgPool2d(output_size=27)
        (rgb_projector): lora.Linear(
          (base_layer): Linear(in_features=1152, out_features=4096, bias=True)
          (lora_dropout): ModuleDict(
            (default): Dropout(p=0.05, inplace=False)
          )
          (lora_A): ModuleDict(
            (default): Linear(in_features=1152, out_features=32, bias=False)
          )
          (lora_B): ModuleDict(
            (default): Linear(in_features=32, out_features=4096, bias=False)
          )
          (lora_embedding_A): ParameterDict()
          (lora_embedding_B): ParameterDict()
        )
        (depth_projector): lora.Linear(
          (base_layer): Linear(in_features=1152, out_features=4096, bias=True)
          (lora_dropout): ModuleDict(
            (default): Dropout(p=0.05, inplace=False)
          )
          (lora_A): ModuleDict(
            (default): Linear(in_features=1152, out_features=32, bias=False)
          )
          (lora_B): ModuleDict(
            (default): Linear(in_features=32, out_features=4096, bias=False)
          )
          (lora_embedding_A): ParameterDict()
          (lora_embedding_B): ParameterDict()
        )
      )
    )
  )
)
trainable params: 84,221,952 || all params: 8,598,469,184 || trainable%: 0.9794993759670605
---> Set tune parameters
mm projector True
trainable params: 119,890,944 || all params: 8,598,469,184 || trainable%: 1.3943289373309917
PeftModelForCausalLM(
  (base_model): LoraModel(
    (model): LlavaLlamaModel(
      (llm): LlamaForCausalLM(
        (model): LlamaModel(
          (embed_tokens): Embedding(128259, 4096)
          (layers): ModuleList(
            (0-31): 32 x LlamaDecoderLayer(
              (self_attn): LlamaFlashAttention2(
                (q_proj): lora.Linear(
                  (base_layer): Linear4bit(in_features=4096, out_features=4096, bias=False)
                  (lora_dropout): ModuleDict(
                    (default): Dropout(p=0.05, inplace=False)
                  )
                  (lora_A): ModuleDict(
                    (default): Linear(in_features=4096, out_features=32, bias=False)
                  )
                  (lora_B): ModuleDict(
                    (default): Linear(in_features=32, out_features=4096, bias=False)
                  )
                  (lora_embedding_A): ParameterDict()
                  (lora_embedding_B): ParameterDict()
                )
                (k_proj): lora.Linear(
                  (base_layer): Linear4bit(in_features=4096, out_features=1024, bias=False)
                  (lora_dropout): ModuleDict(
                    (default): Dropout(p=0.05, inplace=False)
                  )
                  (lora_A): ModuleDict(
                    (default): Linear(in_features=4096, out_features=32, bias=False)
                  )
                  (lora_B): ModuleDict(
                    (default): Linear(in_features=32, out_features=1024, bias=False)
                  )
                  (lora_embedding_A): ParameterDict()
                  (lora_embedding_B): ParameterDict()
                )
                (v_proj): lora.Linear(
                  (base_layer): Linear4bit(in_features=4096, out_features=1024, bias=False)
                  (lora_dropout): ModuleDict(
                    (default): Dropout(p=0.05, inplace=False)
                  )
                  (lora_A): ModuleDict(
                    (default): Linear(in_features=4096, out_features=32, bias=False)
                  )
                  (lora_B): ModuleDict(
                    (default): Linear(in_features=32, out_features=1024, bias=False)
                  )
                  (lora_embedding_A): ParameterDict()
                  (lora_embedding_B): ParameterDict()
                )
                (o_proj): lora.Linear(
                  (base_layer): Linear4bit(in_features=4096, out_features=4096, bias=False)
                  (lora_dropout): ModuleDict(
                    (default): Dropout(p=0.05, inplace=False)
                  )
                  (lora_A): ModuleDict(
                    (default): Linear(in_features=4096, out_features=32, bias=False)
                  )
                  (lora_B): ModuleDict(
                    (default): Linear(in_features=32, out_features=4096, bias=False)
                  )
                  (lora_embedding_A): ParameterDict()
                  (lora_embedding_B): ParameterDict()
                )
                (rotary_emb): LlamaRotaryEmbedding()
              )
              (mlp): LlamaMLP(
                (gate_proj): lora.Linear(
                  (base_layer): Linear4bit(in_features=4096, out_features=14336, bias=False)
                  (lora_dropout): ModuleDict(
                    (default): Dropout(p=0.05, inplace=False)
                  )
                  (lora_A): ModuleDict(
                    (default): Linear(in_features=4096, out_features=32, bias=False)
                  )
                  (lora_B): ModuleDict(
                    (default): Linear(in_features=32, out_features=14336, bias=False)
                  )
                  (lora_embedding_A): ParameterDict()
                  (lora_embedding_B): ParameterDict()
                )
                (up_proj): lora.Linear(
                  (base_layer): Linear4bit(in_features=4096, out_features=14336, bias=False)
                  (lora_dropout): ModuleDict(
                    (default): Dropout(p=0.05, inplace=False)
                  )
                  (lora_A): ModuleDict(
                    (default): Linear(in_features=4096, out_features=32, bias=False)
                  )
                  (lora_B): ModuleDict(
                    (default): Linear(in_features=32, out_features=14336, bias=False)
                  )
                  (lora_embedding_A): ParameterDict()
                  (lora_embedding_B): ParameterDict()
                )
                (down_proj): lora.Linear(
                  (base_layer): Linear4bit(in_features=14336, out_features=4096, bias=False)
                  (lora_dropout): ModuleDict(
                    (default): Dropout(p=0.05, inplace=False)
                  )
                  (lora_A): ModuleDict(
                    (default): Linear(in_features=14336, out_features=32, bias=False)
                  )
                  (lora_B): ModuleDict(
                    (default): Linear(in_features=32, out_features=4096, bias=False)
                  )
                  (lora_embedding_A): ParameterDict()
                  (lora_embedding_B): ParameterDict()
                )
                (act_fn): SiLU()
              )
              (input_layernorm): LlamaRMSNorm()
              (post_attention_layernorm): LlamaRMSNorm()
            )
          )
          (norm): LlamaRMSNorm()
        )
        (lm_head): Linear(in_features=4096, out_features=128259, bias=False)
      )
      (vision_tower): SiglipVisionTower(
        (vision_tower): SiglipVisionModel(
          (vision_model): SiglipVisionTransformer(
            (embeddings): SiglipVisionEmbeddings(
              (patch_embedding): Conv2d(3, 1152, kernel_size=(14, 14), stride=(14, 14), padding=valid)
              (position_embedding): Embedding(729, 1152)
            )
            (encoder): SiglipEncoder(
              (layers): ModuleList(
                (0-26): 27 x SiglipEncoderLayer(
                  (self_attn): SiglipAttention(
                    (k_proj): Linear(in_features=1152, out_features=1152, bias=True)
                    (v_proj): Linear(in_features=1152, out_features=1152, bias=True)
                    (q_proj): Linear(in_features=1152, out_features=1152, bias=True)
                    (out_proj): Linear(in_features=1152, out_features=1152, bias=True)
                  )
                  (layer_norm1): LayerNorm((1152,), eps=1e-06, elementwise_affine=True)
                  (mlp): SiglipMLP(
                    (activation_fn): PytorchGELUTanh()
                    (fc1): Linear(in_features=1152, out_features=4304, bias=True)
                    (fc2): Linear(in_features=4304, out_features=1152, bias=True)
                  )
                  (layer_norm2): LayerNorm((1152,), eps=1e-06, elementwise_affine=True)
                )
              )
            )
            (post_layernorm): LayerNorm((1152,), eps=1e-06, elementwise_affine=True)
            (head): SiglipMultiheadAttentionPoolingHead(
              (attention): MultiheadAttention(
                (out_proj): NonDynamicallyQuantizableLinear(in_features=1152, out_features=1152, bias=True)
              )
              (layernorm): LayerNorm((1152,), eps=1e-06, elementwise_affine=True)
              (mlp): SiglipMLP(
                (activation_fn): PytorchGELUTanh()
                (fc1): Linear(in_features=1152, out_features=4304, bias=True)
                (fc2): Linear(in_features=4304, out_features=1152, bias=True)
              )
            )
          )
        )
      )
      (mm_projector): MultimodalProjector(
        (layers): Sequential(
          (0): DownSampleBlock()
          (1): LayerNorm((4608,), eps=1e-05, elementwise_affine=True)
          (2): Linear(in_features=4608, out_features=4096, bias=True)
          (3): GELU(approximate='none')
          (4): Linear(in_features=4096, out_features=4096, bias=True)
        )
      )
      (region_extractor): RegionExtractor(
        (mask_pooling): MaskPooling()
        (feature_refinement_module): Sequential(
          (0): ConvTranspose2d(1152, 1152, kernel_size=(2, 2), stride=(2, 2))
          (1): LayerNorm2d()
          (2): GELU(approximate='none')
          (3): ConvTranspose2d(1152, 1152, kernel_size=(2, 2), stride=(2, 2))
          (4): GELU(approximate='none')
        )
        (ada_pooling): AdaptiveAvgPool2d(output_size=27)
        (rgb_projector): lora.Linear(
          (base_layer): Linear(in_features=1152, out_features=4096, bias=True)
          (lora_dropout): ModuleDict(
            (default): Dropout(p=0.05, inplace=False)
          )
          (lora_A): ModuleDict(
            (default): Linear(in_features=1152, out_features=32, bias=False)
          )
          (lora_B): ModuleDict(
            (default): Linear(in_features=32, out_features=4096, bias=False)
          )
          (lora_embedding_A): ParameterDict()
          (lora_embedding_B): ParameterDict()
        )
        (depth_projector): lora.Linear(
          (base_layer): Linear(in_features=1152, out_features=4096, bias=True)
          (lora_dropout): ModuleDict(
            (default): Dropout(p=0.05, inplace=False)
          )
          (lora_A): ModuleDict(
            (default): Linear(in_features=1152, out_features=32, bias=False)
          )
          (lora_B): ModuleDict(
            (default): Linear(in_features=32, out_features=4096, bias=False)
          )
          (lora_embedding_A): ParameterDict()
          (lora_embedding_B): ParameterDict()
        )
      )
    )
  )
)
=========== Setting up Tokenizer ... ============
---> Version: llama_3
---> Conversation Template:
Conversation(system='<|start_header_id|>system<|end_header_id|>\n\nYou are a helpful language and vision assistant. You
…
[2025-06-09 04:28:48,370] [INFO] [partition_parameters.py:453:__exit__] finished initializing model with 8.46B parameters
[2025-06-09 04:28:48,907] [INFO] [partition_parameters.py:453:__exit__] finished initializing model with 8.49B parameters
Resuming region extractor from:  /root/.cache/huggingface/hub/models--a8cheng--SpatialRGPT-VILA1.5-8B/snapshots/64df7902f82b5053f5a53455095805e6de3a1f87/region_extractor
[2025-06-09 04:28:48,947] [INFO] [partition_parameters.py:453:__exit__] finished initializing model with 8.51B parameters
LlavaLlamaModel(
  (llm): LlamaForCausalLM(
    (model): LlamaModel(
      (embed_tokens): Embedding(128259, 4096)
      (layers): ModuleList(
        (0-31): 32 x LlamaDecoderLayer(
          (self_attn): LlamaFlashAttention2(
            (q_proj): Linear(in_features=4096, out_features=4096, bias=False)
            (k_proj): Linear(in_features=4096, out_features=1024, bias=False)
            (v_proj): Linear(in_features=4096, out_features=1024, bias=False)
            (o_proj): Linear(in_features=4096, out_features=4096, bias=False)
            (rotary_emb): LlamaRotaryEmbedding()
          )
          (mlp): LlamaMLP(
            (gate_proj): Linear(in_features=4096, out_features=14336, bias=False)
            (up_proj): Linear(in_features=4096, out_features=14336, bias=False)
            (down_proj): Linear(in_features=14336, out_features=4096, bias=False)
            (act_fn): SiLU()
          )
          (input_layernorm): LlamaRMSNorm()
          (post_attention_layernorm): LlamaRMSNorm()
        )
      )
      (norm): LlamaRMSNorm()
    )
    (lm_head): Linear(in_features=4096, out_features=128259, bias=False)
  )
  (vision_tower): SiglipVisionTower(
    (vision_tower): SiglipVisionModel(
      (vision_model): SiglipVisionTransformer(
        (embeddings): SiglipVisionEmbeddings(
          (patch_embedding): Conv2d(3, 1152, kernel_size=(14, 14), stride=(14, 14), padding=valid)
          (position_embedding): Embedding(729, 1152)
        )
        (encoder): SiglipEncoder(
          (layers): ModuleList(
            (0-26): 27 x SiglipEncoderLayer(
              (self_attn): SiglipAttention(
                (k_proj): Linear(in_features=1152, out_features=1152, bias=True)
                (v_proj): Linear(in_features=1152, out_features=1152, bias=True)
                (q_proj): Linear(in_features=1152, out_features=1152, bias=True)
                (out_proj): Linear(in_features=1152, out_features=1152, bias=True)
              )
              (layer_norm1): LayerNorm((1152,), eps=1e-06, elementwise_affine=True)
              (mlp): SiglipMLP(
                (activation_fn): PytorchGELUTanh()
                (fc1): Linear(in_features=1152, out_features=4304, bias=True)
                (fc2): Linear(in_features=4304, out_features=1152, bias=True)
              )
              (layer_norm2): LayerNorm((1152,), eps=1e-06, elementwise_affine=True)
            )
          )
        )
        (post_layernorm): LayerNorm((1152,), eps=1e-06, elementwise_affine=True)
        (head): SiglipMultiheadAttentionPoolingHead(
          (attention): MultiheadAttention(
            (out_proj): NonDynamicallyQuantizableLinear(in_features=1152, out_features=1152, bias=True)
          )
          (layernorm): LayerNorm((1152,), eps=1e-06, elementwise_affine=True)
          (mlp): SiglipMLP(
            (activation_fn): PytorchGELUTanh()
            (fc1): Linear(in_features=1152, out_features=4304, bias=True)
            (fc2): Linear(in_features=4304, out_features=1152, bias=True)
          )
        )
      )
    )
  )
  (mm_projector): MultimodalProjector(
    (layers): Sequential(
      (0): DownSampleBlock()
      (1): LayerNorm((4608,), eps=1e-05, elementwise_affine=True)
      (2): Linear(in_features=4608, out_features=4096, bias=True)
      (3): GELU(approximate='none')
      (4): Linear(in_features=4096, out_features=4096, bias=True)
    )
  )
  (region_extractor): RegionExtractor(
    (mask_pooling): MaskPooling()
    (feature_refinement_module): Sequential(
      (0): ConvTranspose2d(1152, 1152, kernel_size=(2, 2), stride=(2, 2))
      (1): LayerNorm2d()
      (2): GELU(approximate='none')
      (3): ConvTranspose2d(1152, 1152, kernel_size=(2, 2), stride=(2, 2))
      (4): GELU(approximate='none')
    )
    (ada_pooling): AdaptiveAvgPool2d(output_size=27)
    (rgb_projector): Linear(in_features=1152, out_features=4096, bias=True)
    (depth_projector): Linear(in_features=1152, out_features=4096, bias=True)
  )
)
WARNING:root:You are setting tunable parameters for the model. Previous args include 'freeze_backbone' and 'tune_mm_mlp_adapter' are deprecated.
 Notice: default value of tune_xxx is False, which means you would not tune this part.
---> Set tune parameters
Tunable parameters:
language model True
vision tower True
mm projector True
region extractor True
LlavaLlamaModel(
  (llm): LlamaForCausalLM(
    (model): LlamaModel(
      (embed_tokens): Embedding(128259, 4096)
      (layers): ModuleList(
        (0-31): 32 x LlamaDecoderLayer(
          (self_attn): LlamaFlashAttention2(
            (q_proj): Linear(in_features=4096, out_features=4096, bias=False)
            (k_proj): Linear(in_features=4096, out_features=1024, bias=False)
            (v_proj): Linear(in_features=4096, out_features=1024, bias=False)
            (o_proj): Linear(in_features=4096, out_features=4096, bias=False)
            (rotary_emb): LlamaRotaryEmbedding()
          )
          (mlp): LlamaMLP(
            (gate_proj): Linear(in_features=4096, out_features=14336, bias=False)
            (up_proj): Linear(in_features=4096, out_features=14336, bias=False)
            (down_proj): Linear(in_features=14336, out_features=4096, bias=False)
            (act_fn): SiLU()
          )
          (input_layernorm): LlamaRMSNorm()
          (post_attention_layernorm): LlamaRMSNorm()
        )
      )
      (norm): LlamaRMSNorm()
    )
    (lm_head): Linear(in_features=4096, out_features=128259, bias=False)
  )
  (vision_tower): SiglipVisionTower(
    (vision_tower): SiglipVisionModel(
      (vision_model): SiglipVisionTransformer(
        (embeddings): SiglipVisionEmbeddings(
          (patch_embedding): Conv2d(3, 1152, kernel_size=(14, 14), stride=(14, 14), padding=valid)
          (position_embedding): Embedding(729, 1152)
        )
        (encoder): SiglipEncoder(
          (layers): ModuleList(
            (0-26): 27 x SiglipEncoderLayer(
              (self_attn): SiglipAttention(
                (k_proj): Linear(in_features=1152, out_features=1152, bias=True)
                (v_proj): Linear(in_features=1152, out_features=1152, bias=True)
                (q_proj): Linear(in_features=1152, out_features=1152, bias=True)
                (out_proj): Linear(in_features=1152, out_features=1152, bias=True)
              )
              (layer_norm1): LayerNorm((1152,), eps=1e-06, elementwise_affine=True)
              (mlp): SiglipMLP(
                (activation_fn): PytorchGELUTanh()
                (fc1): Linear(in_features=1152, out_features=4304, bias=True)
                (fc2): Linear(in_features=4304, out_features=1152, bias=True)
              )
              (layer_norm2): LayerNorm((1152,), eps=1e-06, elementwise_affine=True)
            )
          )
        )
        (post_layernorm): LayerNorm((1152,), eps=1e-06, elementwise_affine=True)
        (head): SiglipMultiheadAttentionPoolingHead(
          (attention): MultiheadAttention(
            (out_proj): NonDynamicallyQuantizableLinear(in_features=1152, out_features=1152, bias=True)
          )
          (layernorm): LayerNorm((1152,), eps=1e-06, elementwise_affine=True)
          (mlp): SiglipMLP(
            (activation_fn): PytorchGELUTanh()
            (fc1): Linear(in_features=1152, out_features=4304, bias=True)
            (fc2): Linear(in_features=4304, out_features=1152, bias=True)
          )
        )
      )
    )
  )
  (mm_projector): MultimodalProjector(
    (layers): Sequential(
      (0): DownSampleBlock()
      (1): LayerNorm((4608,), eps=1e-05, elementwise_affine=True)
      (2): Linear(in_features=4608, out_features=4096, bias=True)
      (3): GELU(approximate='none')
      (4): Linear(in_features=4096, out_features=4096, bias=True)
    )
  )
  (region_extractor): RegionExtractor(
    (mask_pooling): MaskPooling()
    (feature_refinement_module): Sequential(
      (0): ConvTranspose2d(1152, 1152, kernel_size=(2, 2), stride=(2, 2))
      (1): LayerNorm2d()
      (2): GELU(approximate='none')
      (3): ConvTranspose2d(1152, 1152, kernel_size=(2, 2), stride=(2, 2))
      (4): GELU(approximate='none')
    )
    (ada_pooling): AdaptiveAvgPool2d(output_size=27)
    (rgb_projector): Linear(in_features=1152, out_features=4096, bias=True)
    (depth_projector): Linear(in_features=1152, out_features=4096, bias=True)
  )
)
=========== Setting up Tokenizer ... ============
---> Version: llama_3
---> Conversation Template:
Conversation(system='<|start_header_id|>system<|end_header_id|>\n\nYou are a helpful language and vision assistant. You are able to understand the visual content that the user provides, and assist the user with a variety of tasks using natural language.', roles=('<|start_header_id|>user<|end_header_id|>\n\n', '<|start_header_id|>assistant<|end_header_id|>\n\n'), messages=(), offset=0, sep_style=<SeparatorStyle.LLAMA_3: 7>, sep='<|eot_id|>', sep2='<|end_of_text|>', version='llama_v3', skip_next=False)
…
